…
":"https://localhost:8080/"},"executionInfo":{"status":"ok","timestamp":1626059034287,"user_tz":-480,"elapsed":15,"user":{"displayName":"鍾安慶","photoUrl":"","userId":"15393422789155174717"}},"outputId":"a8954178-0973-457d-8e0a-2afbc9cc126d"},"source":["model.summary()"],"execution_count":23,"outputs":[{"output_type":"stream","text":["Model: \"sequential\"\n","_________________________________________________________________\n","Layer (type)                 Output Shape              Param #   \n","=================================================================\n","conv2d (Conv2D)              (None, 28, 28, 32)        320       \n","_________________________________________________________________\n","activation (Activation)      (None, 28, 28, 32)        0         \n","_________________________________________________________________\n","max_pooling2d (MaxPooling2D) (None, 14, 14, 32)        0         \n","_________________________________________________________________\n","conv2d_1 (Conv2D)            (None, 14, 14, 64)        18496     \n","_________________________________________________________________\n","activation_1 (Activation)    (None, 14, 14, 64)        0         \n","_________________________________________________________________\n","max_pooling2d_1 (MaxPooling2 (None, 7, 7, 64)          0         \n","_________________________________________________________________\n","conv2d_2 (Conv2D)            (None, 7, 7, 128)         73856     \n","_________________________________________________________________\n","activation_2 (Activation)    (None, 7, 7, 128)         0         \n","_________________________________________________________________\n","max_pooling2d_2 (MaxPooling2 (None, 3, 3, 128)         0         \n","_________________________________________________________________\n","flatten (Flatten)            (None, 1152)              0         \n","_________________________________________________________________\n","dense (Dense)                (None, 200)               230600    \n","_________________________________________________________________\n","activation_3 (Activation)    (None, 200)               0         \n","_________________________________________________________________\n","dense_1 (Dense)              (None, 10)                2010      \n","_________________________________________________________________\n","activation_4 (Activation)    (None, 10)                0         \n","=================================================================\n","Total params: 325,282\n","Trainable params: 325,282\n","Non-trainable params: 0\n","_________________________________________________________________\n"],"name":"stdout"}]},{"cell_type":"markdown","metadata":{"id":"hnOG9Xo4p-MF"},"source":["## 4. 訓練"]},{"cell_type":"code","metadata":{"id":"cHtKdZYJp-MG","colab":{"b
…
