…
 layer: # of neurons = # of classes with softmax activation\n","model.add(Dense(units=10, activation='softmax'))"]},{"cell_type":"code","execution_count":null,"metadata":{"colab":{"background_save":true,"base_uri":"https://localhost:8080/","height":420},"id":"floU0of05vJj"},"outputs":[{"name":"stdout","output_type":"stream","text":["Model: \"sequential\"\n","_________________________________________________________________\n","Layer (type)                 Output Shape              Param #   \n","=================================================================\n","conv2d (Conv2D)              (None, 32, 32, 32)        896       \n","_________________________________________________________________\n","max_pooling2d (MaxPooling2D) (None, 16, 16, 32)        0         \n","_________________________________________________________________\n","conv2d_1 (Conv2D)            (None, 16, 16, 128)       36992     \n","_________________________________________________________________\n","max_pooling2d_1 (MaxPooling2 (None, 8, 8, 128)         0         \n","_________________________________________________________________\n","conv2d_2 (Conv2D)            (None, 8, 8, 512)         590336    \n","_________________________________________________________________\n","global_average_pooling2d (Gl (None, 512)               0         \n","_________________________________________________________________\n","dense (Dense)                (None, 256)               131328    \n","_________________________________________________________________\n","dense_1 (Dense)              (None, 10)                2570      \n","=================================================================\n","Total params: 762,122\n","Trainable params: 762,122\n","Non-trainable params: 0\n","_________________________________________________________________\n"]}],"source":["model.summary()"]},{"cell_type":"markdown","metadata":{"id":"GWdFSj9OcYWl"},"source":["### 編譯模型: 設定模型訓練時的設定\n","\n","- Optimizer: Stochastic Gradient De
…
003e]"]},"execution_count":null,"metadata":{},"output_type":"execute_result"}],"source":["CNN_layers + FC_layers"]},{"cell_type":"code","execution_count":null,"metadata":{"colab":{"background_save":true,"base_uri":"https://localhost:8080/","height":420},"id":"hvmVUw4krEJq"},"outputs":[{"name":"stdout","output_type":"stream","text":["Model: \"sequential\"\n","_________________________________________________________________\n","Layer (type)                 Output Shape              Param #   \n","=================================================================\n","conv2d (Conv2D)              (None, 32, 32, 32)        896       \n","_________________________________________________________________\n","max_pooling2d (MaxPooling2D) (None, 16, 16, 32)        0         \n","_________________________________________________________________\n","conv2d_1 (Conv2D)            (None, 16, 16, 128)       36992     \n","_________________________________________________________________\n","max_pooling2d_1 (MaxPooling2 (None, 8, 8, 128)         0         \n","_________________________________________________________________\n","conv2d_2 (Conv2D)            (None, 8, 8, 512)         590336    \n","_________________________________________________________________\n","global_average_pooling2d (Gl (None, 512)               0         \n","_________________________________________________________________\n","dense (Dense)                (None, 256)               131328    \n","_________________________________________________________________\n","dense_1 (Dense)              (None, 10)                2570      \n","=================================================================\n","Total params: 762,122\n","Trainable params: 762,122\n","Non-trainable params: 0\n","_________________________________________________________________\n"]}],"source":["model.summary()"]},{"cell_type":"code","execution_count":null,"metadata":{"colab":{"background_save":true,"base_uri":"https://localhost:8080/","height":420},"id":"43XOpYqROKzD"},"outputs":[{"name":"stdout","output_type":"stream","text":["Model: \"sequential_1\"\n","_________________________________________________________________\n","Layer (type)                 Output Shape              Param #   \n","=================================================================\n","Conv_1 (Conv2D)              (None, 32, 32, 32)        896       \n","_________________________________________________________________\n","max_pooling2d_2 (MaxPooling2 (None, 16, 16, 32)        0         \n","_________________________________________________________________\n","Conv_2 (Conv2D)              (None, 16, 16, 128)       36992     \n","_________________________________________________________________\n","max_pooling2d_3 (MaxPooling2 (None, 8, 8, 128)         0         \n","_________________________________________________________________\n","Conv_3 (Conv2D)              (None, 8, 8, 512)         590336    \n","_________________________________________________________________\n","global_average_pooling2d_1 ( (None, 512)               0         \n","_________________________________________________________________\n","dense_2 (Dense)              (None, 256)               131328    \n","_________________________________________________________________\n","dense_3 (Dense)              (None, 10)                2570      \n","=================================================================\n","Total params: 762,122\n","Trainable params: 762,122\n","Non-trainable params: 0\n","_________________________________________________________________\n"]}],"source":["model_2 = Sequential(CNN_layers+FC_layers)\n","model_2.summary()"]},{"cell_type":"markdown","metadata":{"id":"Axv5GfyzRfMZ"},"source":["####  與使用 `model
…
           Dense(units=128, activation='relu'),\n","                   Dense(units=100, activation='softmax')]"]},{"cell_type":"code","execution_count":null,"metadata":{"colab":{"background_save":true,"base_uri":"https://localhost:8080/","height":454},"id":"oF_YvZpEZuGD"},"outputs":[{"name":"stdout","output_type":"stream","text":["Model: \"sequential_2\"\n","_________________________________________________________________\n","Layer (type)                 Output Shape              Param #   \n","=================================================================\n","Conv_1 (Conv2D)              (None, 32, 32, 32)        896       \n","_________________________________________________________________\n","max_pooling2d_2 (MaxPooling2 (None, 16, 16, 32)        0         \n","_________________________________________________________________\n","Conv_2 (Conv2D)              (None, 16, 16, 128)       36992     \n","_________________________________________________________________\n","max_pooling2d_3 (MaxPooling2 (None, 8, 8, 128)         0         \n","_________________________________________________________________\n","Conv_3 (Conv2D)              (None, 8, 8, 512)         590336    \n","_________________________________________________________________\n","global_average_pooling2d_1 ( (None, 512)               0         \n","_________________________________________________________________\n","dense_4 (Dense)              (None, 256)               131328    \n","_________________________________________________________________\n","dense_5 (Dense)              (None, 128)               32896     \n","_________________________________________________________________\n","dense_6 (Dense)              (None, 100)               12900     \n","=================================================================\n","Total params: 805,348\n","Trainable params: 805,348\n","Non-trainable params: 0\n","_________________________________________________________________\n"]}],"source":["model_CF100 = Sequential(CNN_layers+FC_layers_CF100)\n","model_CF100.summary()"]},{"cell_type":"markdown","metadata":{"id":"N2_KcAk4Z2Pv"},"source":["對照一
…
G"},"outputs":[],"source":["FC_layers_new = [Dense(units=10, activation='softmax')]"]},{"cell_type":"code","execution_count":null,"metadata":{"colab":{"base_uri":"https://localhost:8080/","height":386},"id":"YzGxm7Qyg3nY","outputId":"8deb2388-55c5-4f32-c46b-24aea0fc1fe0"},"outputs":[{"name":"stdout","output_type":"stream","text":["Model: \"sequential_9\"\n","_________________________________________________________________\n","Layer (type)                 Output Shape              Param #   \n","=================================================================\n","Conv_1 (Conv2D)              (None, 32, 32, 32)        896       \n","_________________________________________________________________\n","max_pooling2d_4 (MaxPooling2 (None, 16, 16, 32)        0         \n","_________________________________________________________________\n","Conv_2 (Conv2D)              (None, 16, 16, 128)       36992     \n","_________________________________________________________________\n","max_pooling2d_5 (MaxPooling2 (None, 8, 8, 128)         0         \n","_________________________________________________________________\n","Conv_3 (Conv2D)              (None, 8, 8, 512)         590336    \n","_________________________________________________________________\n","global_average_pooling2d_2 ( (None, 512)               0         \n","_________________________________________________________________\n","dense_12 (Dense)             (None, 10)                5130      \n","=================================================================\n","Total params: 633,354\n","Trainable params: 633,354\n","Non-trainable params: 0\n","_________________________________________________________________\n"]}],"source":["classifier = Sequential(CNN_layers+FC_layers_new)\n","classifier.compile(loss='categorical_crossentropy', \n","                   optimizer=Adam(),\n","
…
